…
7b\u6a21\u578b\u52a0\u8f7d\u6743\u91cd\uff0c\u67e5\u770b\u6a21\u578b\u7684\u67b6\u6784</p> <pre><code>from transformers import BertTokenizer, BertForSequenceClassification\nmodel_path = \"/Users/chan/projects/models/bert-base-chinese\"\n# \u52a0\u8f7d\u5206\u8bcd\u5668\ntokenizer = BertTokenizer.from_pretrained(model_path)\n# \u52a0\u8f7d\u5206\u7c7b\u6a21\u578b\nmodel = BertForSequenceClassification.from_pretrained(model_path, num_labels=5)\nprint(model)\n</code></pre> <p>```Plain Text BertForSequenceClassification(   (bert): BertModel(     (embeddings): BertEmbeddings(       (word_embeddings): Embedding(21128, 768, padding_idx=0) # \u8bcd\u5d4c\u5165\u5411\u91cf       (position_embeddings): Embedding(512, 768) # \u4f4d\u7f6e\u7f16\u7801\u5411\u91cf       (token_type_embeddings): Embedding(2, 768) # \u53e5\u5b50\u5f52\u5c5e\u5411\u91cf       (LayerNorm): LayerNorm((768,), eps=1e-12, elementwise_affine=True)       (dropout): Dropout(p=0.1, inplace=False)     )     (encoder): BertEncoder( # \u7f16\u7801\u5668       (layer): ModuleList(         (0-11): 12 x BertLayer(           (attention): BertAttention( # \u6ce8\u610f\u529b\u673a\u5236             (self): BertSdpaSelfAttention(                (query): Linear(in_features=768, out_features=768, bias=True) # \u67e5\u8be2               (key): Linear(in_features=768, out_features=768, bias=True) # \u952e               (value): Linear(in_features=768, out_features=768, bias=True) # \u503c               (dropout): Dropout(p=0.1, inplace=False)             )             (output): BertSelfOutput( # \u6ce8\u610f\u529b\u673a\u5236\u8f93\u51fa               (dense): Linear(in_features=768, out_features=768, bias=True) # \u8f93\u51fa\u5bc6\u96c6\u5c42               (LayerNorm): LayerNorm((768,), eps=1e-12, elementwise_affine=True)               (dropout): Dropout(p=0.1, inplace=False)             )           )           (intermediate): BertIntermediate( # FFN\u524d\u9988\u5c42             (dense): Linear(in_features=768, out_features=3072, bias=True) # \u7b2c\u4e00\u6b21\u7ebf\u6027\u53d8\u5316             (intermediate_act_fn): GELUActivation() # \u6fc0\u6d3b\u51fd\u6570           )           (output): BertOutput(             (dense): Linear(in_features=3072, out_features=768, bias=True) # \u7b2c\u4e8c\u6b21\u7ebf\u6027\u53d8\u6362             (LayerNorm): LayerNorm((768,), eps=1e-12, elementwise_affine=True)             (dropout): Dropout(p=0.1, inplace=False)           )         )       )     )     (pooler): BertPooler( # \u6c60\u5316\u5c42 \u53d6[CLS]\u7684token\u8f93\u51fa       (dense): Linear(in_features=768, out_features=768, bias=True)       (activation): Tanh()     )   )   (dropout): Dropout(p=0.1, inplace=False)   (classifier): Linear(in_features=768, out_features=5, bias=True) # \u7ebf\u6027\u5206\u7c7b\u5c42 ) <pre><code>## \u5206\u7c7b\u4efb\u52a1\n\n```Python\ninputs = \"hello world\uff01\"\ninputs = tokenizer(inputs, return_tensors='pt')\noutput = model(**inputs) ## \u524d\u5411\u4f20\u64ad\nlogits = output.logits # \u672a\u5f52\u4e00\u5316\u7684\u6982\u7387\n*# \u53d6\u6982\u7387\u6700\u5927\u7684\u6807\u7b7e\uff0c\u5c31\
…
